Models/compgcn_model.pt (torch, 907977 bytes, 20 tensors)

entity_emb.weight f4 [1316, 100]
000000 00 9a 8e bc ce e7 c6 3d 89 5b d9 bc 28 44 e4 bc
       -0.017407417 0.09712182 -0.026532905 -0.02786453
000010 a5 24 7b 3c be c9 94 3d 69 ae 2d 3d ac a5 48 bd
       0.015328561 0.07265042 0.04240266 -0.048986122
000020 58 9a 8e bd 78 7a d8 bc 55 04 07 bd b0 92 b8 3c
       -0.069630325 -0.026425585 -0.032963116 0.022530884
000030 4e dc ad 3c 1f 3b 87 bb f9 d6 31 bd d7 1b d6 3c
       0.021223214 -0.004126921 -0.043417905 0.026136322
000040 eb 1c c6 bc 25 b3 75 bd d0 ef ec 37 76 75 5c 3c
       -0.024183711 -0.0599853 2.8245064e-05 0.013455739
000050 65 1f a0 3c 03 82 45 bd 9b 3e 63 3c 88 04 d9 bc
       0.01954622 -0.048219692 0.013869907 -0.026491418
000060 71 e4 a9 bc a1 a3 17 bd 62 71 44 bd 44 f6 c1 3a
       -0.020738812 -0.037021283 -0.047959693 0.0014798124
000070 dc 8d 4d bd 1d dc 20 3d 00 f3 2b bc 71 5e 14 3d
       -0.050184116 0.039272416 -0.010494947 0.03622288
000080 83 d3 2d bc a4 e4 c5 bc 73 8e a1 3c bd ff 02 bc
       -0.01060951 -0.024156876 0.019721245 -0.007995543
000090 b7 c1 f5 bc 91 b6 11 3a 64 97 5d bd 8d 04 e0 bd
       -0.029999597 0.00055585155 -0.054099455 -0.10938368
0000a0 a3 dd e6 bb 86 49 88 3d 92 e2 eb 3b 33 cc 29 3d
       -0.007045464 0.066546485 0.00719864 0.041454505
0000b0 6d d3 f1 bc 6e 73 18 3d 27 1f 24 3d de ff fa 3c
       -0.029519761 0.037219457 0.04006877 0.030639585
0000c0 4b c9 22 bd 5e 71 39 3d 72 00 82 3d 71 8c 95 3d
       -0.03974275 0.04527413 0.06347741 0.07302178
0000d0 08 89 42 bd 9b 39 bc bb da 29 fa bc 66 be 06 bd
       -0.047493964 -0.005744172 -0.030537535 -0.03289642
0000e0 0d d0 06 3d bd 34 8d bd 89 6d ed bc 30 40 00 3d
       0.032913256 -0.06894825 -0.028982894 0.031311214
0000f0 df 73 02 bd 92 ad 9c bd 39 3a 4c bc ca 8f 6b 3c
       -0.031848785 -0.076502934 -0.012465053 0.014377544
000100 9b 92 8b bd 87 9c 99 bd da 05 36 3c 4b 76 2b bb
       -0.06815072 -0.07500558 0.011109794 -0.0026163037
000110 a1 bc 87 bd f3 8b 9d 3d 53 b7 64 3d 57 b5 e9 3c
       -0.06627775 0.07692709 0.055838894 0.028528852
000120 fd cb 3b 3b 1f 4e 4d bd af 30 e2 3c a1 52 c4 bc
       0.0028655522 -0.05012333 0.027611105 -0.023965182
000130 37 71 69 3d 50 f0 74 3d 79 bb 1c 3d bb 1b 82 bc
       0.056992736 0.059799492 0.038264725 -0.015882364
000140 0e 10 cb 3b d9 38 53 bc 20 f3 f7 bb 35 28 a5 3c
       0.006196982 -0.0128919715 -0.0075668246 0.020160774
000150 23 b9 0e 3d 5c b4 ae 3d be 14 18 3d 13 c5 b6 bd
       0.03484453 0.085304946 0.037129156 -0.08924308
000160 ec cc 05 3d ee c3 7b 3d d6 eb 23 bb 91 dd 68 bd
       0.03266613 0.06146615 -0.0025012395 -0.056851927
000170 2a d8 b5 ba dc 1a 9e bb cb e8 8b bd 99 e4 ca bc
       -0.0013873626 -0.004824979 -0.06831511 -0.024767207
000180 6a de 51 bd 56 c2 9e bd d3 17 5c 3c 37 65 c5 bc
       -0.0512375 -0.077519104 0.0134334145 -0.024096115
000190 75 a6 8c 3c 51 37 29 bd 23 aa e3 bc 5a a1 fd bc
       0.017169217 -0.04131252 -0.027791088 -0.030960727
0001a0 e1 c1 d0 bc bb 52 1f bd 28 0d e8 3b 49 d1 45 bb
       -0.025483074 -0.038897257 0.0070816465 -0.0030184558
0001b0 a1 e4 3b 3d 10 e9 26 bd 91 94 3e bd a8 35 55 bd
       0.045872334 -0.04074961 -0.046528403 -0.052053124
0001c0 91 7c 9b bc 88 32 a2 bc 3b eb 0f bd 4b b5 4c bd
       -0.018980296 -0.019799486 -0.035136443 -0.049977582
0001d0 ae b5 c4 bc 4b ab 7e bd 32 f4 e6 3c 15 8a 9c 3c
       -0.024012413 -0.062175076 0.028192613 0.019108811
0001e0 08 ec 1d 3d 86 ab c3 bc 0a 92 f7 3c 36 b9 35 bd
       0.038555175 -0.0238855 0.030221004 -0.044366084
0001f0 34 8a af 3b 75 9a 42 3d ef da 81 bd 6b 7f fe bb
       0.0053570513 0.047510583 -0.063405864 -0.0077666542
000200 1b 63 62 3c a0 35 61 3d 99 c8 31 3d bc 13 4e bd
       0.013817574 0.05498278 0.043404195 -0.05031179
000210 d6 ad 36 3d 52 83 9d 3d 20 1a d8 3b 2d aa 01 bd
       0.044599377 0.07691063 0.006594911 -0.031656433
000220 1e 15 2f 3d 80 53 4a bd c1 4d 21 3d 91 2a 4e 3d
       0.04274475 -0.049396038 0.039380793 0.050333563
000230 01 d0 0b bd 5f 93 90 bd 41 0c 00 3d 48 47 d7 bb
       -0.034133915 -0.07059359 0.031261686 -0.0065697767
000240 77 74 8e bc aa f6 95 3b f2 54 77 3d 13 92 73 bc
       -0.01738952 0.004576524 0.060383745 -0.01486637
000250 8e dd 57 bc 1a ee 9d 3c 90 33 99 bd 26 83 b5 3c
       -0.013175381 0.019278575 -0.07480538 0.022157263
000260 19 a0 ac 3d 3e af 56 3d 4f 70 28 3c 80 07 2a bd
       0.08428974 0.052413218 0.010280683 -0.04151106
000270 35 43 d5 bc d9 dd 90 bc de 9a 71 3d 57 d5 98 bd
       -0.026033023 -0.01768391 0.058985583 -0.07462566
000280 31 5c 85 bd e4 c6 a0 bb e5 34 b4 3c 18 b4 6a bc
       -0.06511725 -0.004906522 0.021997878 -0.014325164
000290 f0 da 59 bc 9c c4 62 bd e7 db fc 3c b1 50 ee b9
       -0.013296828 -0.055363283 0.030866576 -0.00045455017
0002a0 ff 16 fa 3b 00 84 67 bd 25 44 4c bc a0 1a 15 bd
       0.007632136 -0.05652237 -0.012467419 -0.036402345
0002b0 e8 24 3b bd fb 26 65 bd d4 16 e4 bb cf 24 b1 3d
       -0.045689493 -0.055945378 -0.006960729 0.08649599
0002c0 ab 30 05 3c 0a 51 10 3d ce 19 53 bd 66 d0 17 3d
       0.008129279 0.035233535 -0.05153828 0.03706398
0002d0 2b 9e 2d bc 3c 3e 76 3d 57 8e a7 3b 72 ce 07 bd
       -0.010596792 0.060117945 0.005113404 -0.033155866
0002e0 5b 56 16 3d de b9 04 bc e6 74 4d ba 2e 2a a7 3c
       0.03670345 -0.008100955 -0.00078375486 0.020405855
0002f0 f7 7c 31 bd 00 ac 2a bd 93 9b 0b bd 0f 02 ae 3c
       -0.043332066 -0.04166794 -0.034083914 0.021241216
000300 34 5b 5d bb a2 64 de 3b 45 5b 41 3c 2e c3 0e bd
       -0.0033776285 0.0067868987 0.0118015455 -0.034854107
000310 62 30 8f 39 64 96 45 3a 9a 9f b1 bd 45 99 b6 bc
       0.00027311133 0.00075373636 -0.0867302 -0.022289881
000320 73 68 01 bd af 41 d3 bc 1c 96 91 bd 23 63 04 3d
       -0.03159375 -0.025788156 -0.07108709 0.032321107
000330 3a b8 04 3b 88 ef 7d 3c 2d 08 92 3b c7 5a 82 3b
       0.002025141 0.015499003 0.004456541 0.0039781067
000340 cd ab c2 bc c4 91 8b bc a4 96 8d bd 66 60 59 3c
       -0.023763562 -0.01703728 -0.06913498 0.013267612
000350 df 00 a4 bc 5a cd 52 bd 1c 23 34 3d 7e c3 a0 bc
       -0.020019947 -0.05146537 0.043978795 -0.019624468
000360 0a 69 80 bc 9f 9f 81 bc c7 9e dc 3c 47 4d 0e bd
       -0.015675087 -0.015823184 0.02693118 -0.034741666
000370 b5 69 7a 3d 46 cd 7b 3d 1e f0 60 3c 6e 45 d7 3b
       0.061135966 0.06147506 0.013729123 0.006569556
000380 86 1d b2 bc be c4 0f ba e8 3e 2c bd 5a 45 13 bd
       -0.021742593 -0.0005484334 -0.04205218 -0.03595481
000390 c4 f3 d7 bc a4 03 35 bc 07 1c 73 bb 3f 3f ce 3c
       -0.026361354 -0.011048231 -0.0037095563 0.025176642
0003a0 2e 74 39 3d b2 d2 c1 3c da ae 2f 3d 4c 95 ec bb
       0.045276813 0.023660038 0.04289136 -0.007219946
0003b0 bc 59 51 3d 84 23 36 3d 13 b5 3e 3c 4d dc 0d bd
       0.051110968 0.044467464 0.011639851 -0.034633923
0003c0 d2 66 11 3b e8 75 c6 bc f2 d5 a4 bb 38 85 50 bd
       0.002218653 -0.024226144 -0.005030387 -0.050908297
0003d0 6f 99 dd bc e9 1d 8d 3d 3f 77 7f bd ef dd 19 3d
       -0.027050702 0.068904705 -0.06236958 0.037565168
0003e0 5e b3 a0 bc 21 8a c8 bc 01 6e 29 3c fd 8f 0e 3c
       -0.019616779 -0.024479927 0.010341168 0.008701322
0003f0 67 5b 46 3d ad 47 85 3c e1 14 de bc c1 eb 88 3c
       0.04842701 0.01626953 -0.027109565 0.016713979

relation_emb.weight f4 [28, 100]
000000 7f 15 0c be 0d f4 d5 bc d3 a6 f8 bc ae a3 0a be
       -0.13680075 -0.026117349 -0.030352985 -0.13539001
000010 46 18 1c bd 3c 38 b0 bd fd 6f 90 bb 16 cf a2 bc
       -0.038109086 -0.08604476 -0.0044078813 -0.019874137
000020 98 63 21 be 83 64 2a 3d f6 d4 83 3d d3 34 39 3e
       -0.15760648 0.04159976 0.064371035 0.18086557
000030 e8 87 43 be c2 5b e9 bd 91 5d 0d 3c f2 f7 35 3e
       -0.19094813 -0.113944545 0.008628265 0.17770365
000040 73 2d 87 3b 93 ef 9a bc d5 65 88 3d f1 9d 3a be
       0.004125291 -0.018913066 0.06660048 -0.18224312
000050 f6 b8 60 bd 58 86 c7 3d 94 6b 50 be f2 76 2a 3e
       -0.054863892 0.09742421 -0.20353538 0.16646937
000060 9f 7f 34 be e8 cd 29 bb f8 27 e8 bc 09 85 c7 bc
       -0.17626809 -0.0025910083 -0.028339371 -0.024355428
000070 f0 a0 07 be b7 26 00 bd b8 f3 1a 3e 07 d4 64 be
       -0.13244987 -0.03128692 0.15132034 -0.22346507
000080 1c 3b b8 bd 2e 78 12 be fe be 26 3e a2 f7 ff 3d
       -0.08995649 -0.14303657 0.16283795 0.12498404
000090 85 9a c0 3d 68 ec 00 be b2 12 3c be 3c d9 a3 3d
       0.09404472 -0.12590182 -0.18366507 0.080004185
0000a0 e5 db 8f bd 2e 17 5e be 0b 9c bb b9 93 9f f9 3d
       -0.070243634 -0.2168853 -0.0003578368 0.121886395
0000b0 02 61 ab 3d 46 a7 ff 3d ac f3 d6 3d 3a de c7 3c
       0.08368112 0.12483077 0.104956955 0.024397958
0000c0 9e 30 a1 bd 95 e3 ea bd 7a e4 4a bd 25 5d 68 3d
       -0.07870601 -0.11469189 -0.0495343 0.056729455
0000d0 fa de 3e be 6b e1 43 3e ed 82 29 be ec d8 22 3d
       -0.18639746 0.19128959 -0.1655385 0.039757654
0000e0 be 8e 31 be 63 b7 53 bd 90 60 01 3e 5d be 0c 3d
       -0.17339608 -0.051688563 0.12634492 0.034361232
0000f0 03 32 40 3e 2a 2f a0 3c 44 af 39 3e 7b f1 b0 bc
       0.18769078 0.01955374 0.18133265 -0.021599522
000100 db 1d 23 3e 5e 11 29 be 06 f5 b2 bc b6 fb f1 3d
       0.15929358 -0.16510531 -0.021845352 0.11815588
000110 05 e7 2d be 66 11 41 3d 58 1b 12 3e 37 29 e4 bd
       -0.16982658 0.047135733 0.14268243 -0.111406736
000120 9b 73 7b be a6 1a bd 3b af b9 2d 3a 8c fa 22 bd
       -0.24555819 0.005770999 0.0006627095 -0.03978972
000130 b2 b4 81 3e 93 d6 01 3e 5e d6 a4 3d bb 5b fa bd
       0.25333172 0.1267951 0.080487 -0.122245274
000140 56 21 73 3e ec 3f 57 3d ab ba 70 3d bc 10 18 be
       0.23743185 0.052551195 0.05877177 -0.14850134
000150 74 af bc bc 54 96 bb bb 1e 2c cf bd 65 03 eb 3d
       -0.023032881 -0.0057247076 -0.101158366 0.11475257
000160 30 39 2f bd 90 b2 47 bd 6e 8f 2b 3e 0c 1e 18 3e
       -0.042779148 -0.048754275 0.16753933 0.14855212
000170 2d 6b 12 be 68 b3 5c be dc 00 87 bd 93 ce 50 bd
       -0.14298697 -0.21552813 -0.06591961 -0.050978255
000180 c0 46 26 bd a1 b9 bc bd 3e 57 b2 bd de 4b 29 be
       -0.040594816 -0.092150934 -0.087080464 -0.16532847
000190 af be 13 be 1c 0e 34 3e bd 47 2f be c9 15 0b be
       -0.14428209 0.17583507 -0.1711721 -0.13582529
0001a0 30 8c fc 3d f2 4f 07 be 25 93 8a 3d f1 b9 3b 3d
       0.12331426 -0.1321409 0.06766347 0.045831624
0001b0 90 2a 12 bc a7 79 2d 3e a6 e1 80 bd 70 c4 ad bc
       -0.0089212805 0.16940938 -0.06293039 -0.021211833
0001c0 21 17 31 3d bf 3f 87 3d 49 56 f1 bd 3e 2e 26 3d
       0.043234948 0.066039555 -0.11784036 0.040571444
0001d0 02 7c b1 bd ff d3 d6 3d e3 2a 08 bd 49 dc f0 3d
       -0.08666231 0.10489654 -0.033244025 0.11760766
0001e0 45 63 38 3d 54 94 ac 3d fb e9 28 3e 17 8f 36 3e
       0.045016546 0.08426729 0.16495506 0.17828022
0001f0 0f 11 db 3d f8 83 3c 3e f6 95 d9 3d f5 73 e8 bc
       0.10696613 0.18409717 0.10624306 -0.028375605
000200 43 97 81 3d b4 7d df bd ac 2c b7 bd 49 3b c5 3d
       0.06327679 -0.10912648 -0.08944067 0.09630448
000210 8a 90 15 be c9 f4 be 3d 64 76 1e bd b2 96 36 3e
       -0.14605919 0.09324033 -0.038687125 0.17830923
000220 95 e6 f7 3d 41 09 18 bd a3 7f df bd 3b e8 35 be
       0.12104527 -0.0371182 -0.10913017 -0.1776437
000230 4e d9 eb bc cc 68 b6 bd 33 c7 95 3b 15 ff 94 3d
       -0.028790142 -0.08906707 0.0045708655 0.072752155
000240 26 9a ed bc 2a 2d e9 bc 32 6b 51 be b4 7a 59 3c
       -0.029004168 -0.028463919 -0.20451048 0.013273884
000250 e2 0f ea 3d c6 52 88 3d 9a 18 17 bd 17 e4 44 3e
       0.11428811 0.06656413 -0.036888696 0.19227634
000260 14 00 bd bd b6 db 04 3e 40 68 a9 ba a5 c0 4c 3d
       -0.092285305 0.12974438 -0.0012924746 0.049988408
000270 0e 35 de bc 9a 44 58 be 26 15 a8 3d 11 e7 05 be
       -0.027124908 -0.2111992 0.08207159 -0.13076426
000280 d1 50 c5 bd 08 80 2b 3e e4 f1 6a bd 1b 28 a5 3d
       -0.09634555 0.16748059 -0.05735959 0.0806429
000290 60 82 5c 3d 5f 8b 1c bb d0 21 b3 bd 03 cf ce bc
       0.053835273 -0.0023886783 -0.087466836 -0.025245195
0002a0 ce 92 1f 3d 2b 2c 9a 3d 56 28 4a 3e 60 ea 97 3d
       0.038958363 0.075279556 0.1974195 0.0741775
0002b0 2d 2a 3b be 9e d5 16 3d 64 b2 53 be 05 f7 a0 3d
       -0.18277808 0.036824815 -0.2067352 0.07859615
0002c0 f7 12 a4 bc bc 1f 06 3e 92 08 16 3e 45 e8 41 be
       -0.020028574 0.13098043 0.14651707 -0.1893626
0002d0 d6 91 f9 3d 31 d8 1c 3e f2 71 0a 3e 5a 6c 08 3e
       0.12186019 0.15316845 0.13520029 0.13322583
0002e0 5b 37 60 be c3 9a 90 3b 3a 52 0f be 81 0e b7 3d
       -0.21896116 0.0044129803 -0.1399621 0.08938313
0002f0 1e 25 c4 bd 5e 52 10 3e 6e 90 be 3d 59 00 0d be
       -0.09577392 0.1409392 0.093048915 -0.13769664
000300 dc 49 1d 3e e2 6d 92 bd 22 0b 0d 3e 23 e3 9e 3a
       0.15360206 -0.07149865 0.13773778 0.0012122135
000310 f2 fb 51 3d 80 46 60 bd e8 7a 4b 3d cd 5f 38 3e
       0.051265664 -0.054754734 0.04967776 0.18005295
000320 b1 f6 53 3d a7 8f f7 3d 60 5c 53 be 5a 60 08 be
       0.051748935 0.120879464 -0.20640707 -0.13318005
000330 b3 a8 7a bd f5 ad 25 3e 6c 82 2b be f3 d0 ad bd
       -0.06119604 0.1617964 -0.16748971 -0.084871195
000340 5d 35 2a be 9f 1d da 3c d6 8f 41 bd ae 7d d3 bd
       -0.16621919 0.026625453 -0.047256313 -0.10326706
000350 ee a0 29 bd 42 f0 50 bd 0f 4b 83 3d 8a 9c a9 bd
       -0.04141324 -0.051010378 0.06410801 -0.082818106
000360 fe 64 b3 bc 6d a4 b1 3b e4 ef d8 3d 3c bc 1a be
       -0.021898743 0.0054212124 0.105926305 -0.15110868
000370 74 15 5d be 67 1d 23 be bb d5 6e 3e 0b e6 98 3c
       -0.21590215 -0.15929185 0.23323719 0.01866438
000380 3b c3 1d be 67 2f c0 bc b5 68 46 3a 87 3c 16 3e
       -0.15406506 -0.023460103 0.0007568703 0.14671527
000390 1b 72 f9 3d b4 54 fa bd d9 72 c6 3d 77 8e 48 bc
       0.12179967 -0.12223187 0.09689874 -0.0122409975
0003a0 29 01 22 3e 2f e6 03 3e ed 78 9e 3d db bc d6 3d
       0.15820755 0.12880777 0.077379085 0.1048524
0003b0 cd 91 0b 3c ad b6 34 3d 27 0c 3c be 93 79 e4 bc
       0.008518648 0.044119526 -0.18364011 -0.027890002
0003c0 4d ff 1c be 59 68 e8 3d bc 97 db 3d 8b b6 01 3e
       -0.15331765 0.11348028 0.107223004 0.12667291
0003d0 26 96 bf bd ab b4 0b 3e cf b6 1e 3e 3b ec 35 3d
       -0.093548104 0.13643138 0.15499423 0.04441474
0003e0 2d 81 13 bd 9f 22 e1 bd c5 68 f4 bd 00 36 1f be
       -0.036011863 -0.109929316 -0.11934046 -0.15547943
0003f0 57 d6 e5 3d 23 de 2e 3d b6 0e ef 3d ae 79 fe 3d
       0.11222523 0.042692315 0.11672728 0.12425552

conv1.W_O.weight f4 [100, 100]
000000 f5 10 24 be 73 f1 c4 3d ab d9 12 bd 48 fd 0c be
       -0.16022094 0.09616365 -0.035852116 -0.13768494
000010 df c6 4f 3d 6f c9 f5 bd 90 40 8b bc 76 68 f2 bd
       0.050726768 -0.12001311 -0.01699856 -0.118363306
000020 49 ee 2b be 4b f6 9b 3d 22 7b 12 3e 16 1f e7 3d
       -0.16790117 0.07615336 0.14304784 0.11285226
000030 c8 f8 e0 bd 72 40 cc bd 65 78 5f 3d b5 61 13 be
       -0.10984951 -0.099732295 0.054558177 -0.14392741
000040 27 8b 1c 3e da bd 04 3d 8e 6b 0d 3e f2 b7 ec bd
       0.15287457 0.03240762 0.1381056 -0.11558522
000050 be 7b 17 be de 0a ea bd 86 3f 4e 3e d7 4d b8 bd
       -0.14793298 -0.11427854 0.2014142 -0.08999222
000060 97 48 04 3e b0 84 3a be ce 73 29 be f7 8f b4 bb
       0.12918316 -0.18214679 -0.16548082 -0.005510326
000070 66 b7 2d bd 3f 76 d9 ba fc 8d 28 be 53 af c5 3d
       -0.04241123 -0.0016591026 -0.16460413 0.09652581
000080 52 d0 bb bd d5 ca fe 3d 92 79 30 be 7b 39 95 bb
       -0.09170593 0.12441031 -0.17233875 -0.0045539713
000090 0f 2c 10 3e 02 09 27 3d 97 a6 f8 3d f8 e8 43 3d
       0.14079307 0.040780075 0.121411495 0.0478296
0000a0 b6 f6 d4 bd 67 fa 18 be 93 1f b2 3d 30 fe 6e 3d
       -0.10398619 -0.14939271 0.086974286 0.05834788
0000b0 47 d1 33 3e b5 7c ca 3d f8 47 f1 3d 68 1d 51 3d
       0.17560302 0.09887067 0.11781305 0.051053435
0000c0 4b 77 85 bd 6a ac 12 3e 7a 57 45 3d 98 02 ab bd
       -0.06516894 0.14323583 0.048179127 -0.08350104
0000d0 a6 2d fe bd 00 3e d3 3d 68 28 30 3d 19 02 12 3d
       -0.124110505 0.1031456 0.043007284 0.03564653
0000e0 8b f9 d8 3d 0b 1b 19 3e cb d7 5b bc 47 90 25 3d
       0.105944715 0.14951722 -0.013418148 0.040420797
0000f0 c5 b2 96 bc c3 0e 72 3d 50 b0 97 3d ca 2f e1 bd
       -0.01839579 0.05909611 0.07406676 -0.10995443
000100 eb 63 94 3d c3 99 27 3e 39 f8 f1 3d 97 72 de bd
       0.0724562 0.16367249 0.11814923 -0.108617
000110 a7 8b 28 3e f6 d0 10 3e 57 20 81 bd 3c 71 93 bd
       0.16459523 0.14142212 -0.063049965 -0.07199332
000120 d8 b7 0e 3e f5 83 51 bd 8e 6b 28 3d e6 52 eb bd
       0.13937318 -0.051151235 0.041118197 -0.11490421
000130 1f c2 6c bd 62 e1 04 be 91 de 79 3d 95 e9 b0 3c
       -0.057802316 -0.12976602 0.06100327 0.021595756
000140 5e ad 23 be d6 c7 99 3d 2e bc 25 3e 07 31 45 bc
       -0.15984103 0.07508819 0.16185066 -0.012035615
000150 d4 b1 0f bd 5b 54 e3 3d 1f 32 17 be ac 5d 0b be
       -0.0350817 0.11100074 -0.14765213 -0.13609952
000160 ec 03 ab 3d 11 8a a8 3d 39 2a 29 bd 31 53 18 be
       0.083503574 0.08229459 -0.041300032 -0.14875485
000170 0c f5 9a 3d 1a 7c 1f 3e a1 46 b4 bd 19 0a 3a bd
       0.0756627 0.15574685 -0.08802534 -0.045419786
000180 26 52 4d bd 7a a1 27 3d 66 46 18 be b6 44 68 bd
       -0.05012717 0.04092548 -0.14870605 -0.056706153
000190 b1 7b 02 bd 15 b5 c0 3d 2e 02 92 bd 46 68 de 3d
       -0.031856243 0.09409539 -0.07129322 0.10859732
0001a0 cb 83 63 3c ce 52 dc 3d 04 c2 a2 3d 29 ee 62 bd
       0.013886402 0.10757981 0.07947162 -0.05540291
0001b0 8a 8c 37 bd 33 8b bb 3d 8a cb 81 bd b1 3b 2d bb
       -0.044811763 0.091574095 -0.0633765 -0.0026433284
0001c0 2b 8d 13 be 1d a9 9c 3d 96 2f 0c be 67 f2 75 bd
       -0.1440932 0.07649443 -0.13690028 -0.060045626
0001d0 f2 c7 f6 bd 2b 71 c5 3d de 8f 63 bc 1f 06 94 3d
       -0.12049855 0.09640726 -0.013889281 0.0722773
0001e0 9c 12 28 3b 35 e6 f9 bc 49 98 87 3b 42 70 90 bc
       0.0025645858 -0.03050528 0.004138027 -0.017631654
0001f0 f6 fb 50 3d e8 53 e9 bd b2 f3 a2 3d 3c 59 87 bd
       0.05102154 -0.11392957 0.079566374 -0.06608817
000200 90 80 5f 3d d3 ab 9a 3d c7 d8 5d 3d 33 1d 90 bd
       0.054565966 0.07552304 0.054161813 -0.07036819
000210 54 b0 13 3e ce 4a a2 3d 59 d8 6c bd 85 a5 bf 3d
       0.14422733 0.07924424 -0.057823513 0.09357742
000220 01 cc 80 3d b0 bc 72 bd f2 21 55 be f0 28 1a bd
       0.06288911 -0.059261978 -0.2081373 -0.037636697
000230 6c 98 f2 3d 60 a0 32 bc 3c e2 58 bd 0d 4a b6 3d
       0.118454784 -0.010902494 -0.05295013 0.08900843
000240 74 c5 d3 3d 61 ba fe bb f7 2b 64 3e d3 f5 89 3d
       0.103403956 -0.007773683 0.22282396 0.067363404
000250 73 24 66 3d 80 11 02 bc 13 80 ca 3c 81 a3 17 be
       0.056187104 -0.007938743 0.024719274 -0.14808466
000260 97 ea a4 3b de 22 a8 bd 4a e7 11 be 19 05 7b 3b
       0.005032848 -0.082097754 -0.14248386 0.00383026
000270 13 e1 9c bd c0 c1 06 3e 4b c0 78 bd ff fc f6 bd
       -0.07660117 0.13159847 -0.06073026 -0.12059974
000280 31 56 55 3d c5 1f 24 be aa 0f ec 3d 48 c0 c6 bd
       0.05208415 -0.16027744 0.11526425 -0.097046435
000290 ec 16 1f 3d 78 c6 44 3d 89 18 cf 3c 96 7e d3 bd
       0.03884022 0.048040837 0.025280254 -0.10326879
0002a0 98 5b 16 3e b5 69 37 be 14 56 d5 bd 90 c1 d9 3d
       0.14683378 -0.17911418 -0.10416809 0.10632622
0002b0 a0 5c 04 be 49 2a bf bd ce 81 73 3c 8c 07 3f 3e
       -0.12925959 -0.09334237 0.014862491 0.18655223
0002c0 df e0 c8 bc 5a 0d ac bc 4b 6d 93 3d 0c 3b 59 3e
       -0.02452129 -0.02100246 0.0719858 0.21213931
0002d0 1b e8 00 be ed 7c 98 bc e2 37 1e bd bb 06 fc bd
       -0.12588541 -0.018614257 -0.038627513 -0.12305971
0002e0 b2 66 fa bd 57 2d dc 3a c0 ea 7f bd 5d 29 19 bd
       -0.12226619 0.001679818 -0.062479734 -0.037392963
0002f0 fb 05 bb bc 33 a5 aa bd 3a cf ae bd 52 20 34 3e
       -0.02283 -0.083322905 -0.08535619 0.17590454
000300 f6 27 03 be cd 7b 90 bd 20 88 b9 bd e7 8e 43 be
       -0.12808213 -0.07054863 -0.09059167 -0.19097482
000310 de 53 9d 3d 7f cb b9 bd 30 2f 47 3d ef c0 8b 3d
       0.07682012 -0.09072017 0.048628986 0.068239085
000320 7a 75 b9 3c de 35 fd bd 8c e9 5b 3c 5b 4c 62 3d
       0.022639025 -0.1236379 0.013422381 0.0552486
000330 d9 f0 25 3e af 2e b0 bc d8 3b 32 bd 5f 16 14 be
       0.16205157 -0.021506635 -0.043514103 -0.14461659
000340 0e 0e 8a 3c 11 db 55 be 74 33 38 be 77 6e bb bd
       0.016852405 -0.20884348 -0.17988378 -0.09151929
000350 17 3b 3a 3d a9 dc d6 bd e6 a7 9f bd b6 3f bc 3c
       0.04546651 -0.10491306 -0.07795696 0.022979598
000360 dc 8c ed bd c8 cb d9 3c 71 df 89 3d 1e 2c 25 3d
       -0.115991324 0.026586428 0.06732071 0.040325277
000370 e9 96 2a be a2 5e ca bc ec 89 8f bd cd ca 31 3d
       -0.1665913 -0.024703328 -0.070087284 0.043406297
000380 27 4d 5c 3c f5 d6 6b bd db d3 1c be 7b 3a 09 3e
       0.013446129 -0.057578046 -0.15315191 0.13401215
000390 2c a3 39 3e 86 28 d8 3d 20 f2 d7 bd c2 33 43 bd
       0.18128651 0.10554604 -0.105442286 -0.047656782
0003a0 14 36 f9 3c 4c 6a 15 be 53 46 2e bd b2 3c 01 3d
       0.030421294 -0.1459133 -0.042547535 0.031552024
0003b0 4d f9 37 3e 6c fc b0 bd a9 9e af bd b6 88 5b 3c
       0.17966194 -0.08641896 -0.08575184 0.013399294
0003c0 37 4f 36 be 82 08 41 bc 7a 5f 29 be 42 3a f6 3d
       -0.17803656 -0.011781814 -0.16540328 0.120228305
0003d0 6b c6 52 3b 59 a3 d9 3d 81 42 c1 bd 41 25 99 3d
       0.0032161723 0.10626859 -0.09436513 0.07477809
0003e0 cb 93 f0 3d ac 40 9c bd ed 1b 12 bd 32 4c ef 3b
       0.11746939 -0.07629523 -0.035671163 0.0073027844
0003f0 83 3c 2f 3e b0 c7 c9 3d 40 89 37 be 5c bc 2e be
       0.17112927 0.098525405 -0.1792345 -0.17064041

conv1.W_I.weight f4 [100, 100]
000000 8f ef 03 3c e5 85 08 be 44 4d 6a bc 28 cd 12 bd
       0.008052721 -0.13332327 -0.014300648 -0.035840183
000010 a9 a7 c4 3d e3 6a 99 bd 29 ef ab bd f6 79 b6 3d
       0.09602291 -0.0749109 -0.083952256 0.08909981
000020 f8 97 36 be 35 10 90 3d 8d 6c 15 3e 42 3f 3a be
       -0.17831409 0.07034341 0.1459219 -0.18188193
000030 02 0b 49 3d ed 39 08 3e da 1d e3 3d ce df f2 3d
       0.049082763 0.13303347 0.11089678 0.118590936
000040 ac 44 af 3d 2d d2 0f be 8d eb 3d 3e 45 02 10 3e
       0.0855802 -0.1404502 0.18546887 0.14063366
000050 7f 9d 67 3c b8 99 3d be 06 22 a3 3d f8 23 1e bb
       0.014136671 -0.1851567 0.07965474 -0.0024130326
000060 f4 5f 6c bd ec 4a 8a 3b 0d d2 3d be a0 4b 29 be
       -0.057708696 0.004220357 -0.1853716 -0.16532755
000070 46 4f 9d bc 6e a3 17 3e 32 2f 29 3e 77 31 ce 3d
       -0.01920284 0.14808437 0.1652191 0.100680284
000080 82 94 d0 3d 31 0b db 3c e4 49 a3 3d a9 83 7e bd
       0.101845756 0.026738735 0.07973078 -0.06213728
000090 59 70 86 bc 66 89 05 3e 1e 8a ac 3d 66 ab b4 3c
       -0.016410993 0.13040695 0.08424781 0.022054385
0000a0 15 c0 e0 bd 06 90 53 3d 2f ac 12 3e a6 50 2d 3d
       -0.10974137 0.051651023 0.14323495 0.04231324
0000b0 13 47 aa 3d cf 86 06 be 78 c9 29 bd df 4e 0b 3e
       0.083143376 -0.13137363 -0.0414519 0.13604306
0000c0 a8 5f ab bd 79 17 13 be 80 f2 22 3e 80 b5 d1 bd
       -0.08367854 -0.14364423 0.15912819 -0.102396965
0000d0 59 2b 2e be 46 39 57 bc 46 d0 20 3e c8 e8 01 3e
       -0.17008723 -0.013136214 0.1570445 0.12686455
0000e0 ed da 99 3d 4e 2d a7 bd da c6 cb bc b0 0c 1f bd
       0.0751246 -0.08162938 -0.024875093 -0.03883046
0000f0 0d 9e e0 bd 27 e3 f9 bc 87 fa b8 bd 88 23 06 be
       -0.10967646 -0.030503822 -0.09032159 -0.13099492
000100 eb a6 0e bc db 81 00 3e d4 a0 da 3d 4f 6a f3 3d
       -0.0087067885 0.12549536 0.10675207 0.11885511
000110 b1 7f ba 3d 94 37 f8 bb 5a 49 f7 3c 1a a6 59 3d
       0.091063865 -0.007574985 0.030186344 0.053136922
000120 28 1a 01 3e e0 04 e3 bd e0 8c ce 3d 84 2b 26 3e
       0.12607634 -0.11084914 0.100854635 0.16227537
000130 3f 98 96 3c 11 3f f4 bd b1 c3 94 3d e0 5d 9a 3d
       0.018383143 -0.119260915 0.07263888 0.075374365
000140 7e 1a 23 bd 05 9b ea 3d 6f 58 d4 bd fc d2 2b 3e
       -0.039820187 0.11455349 -0.1036843 0.16779703
000150 dd eb a0 3b 08 f2 94 3d 13 cd 1f 3d 61 01 42 bc
       0.0049109296 0.07272726 0.039013933 -0.011841149
000160 d9 15 22 be 4f 42 1a bd 18 47 0d be ac 3e a9 bd
       -0.15828647 -0.037660893 -0.13796651 -0.08263907
000170 c0 0c 01 bd 25 71 ba bc 36 40 23 3d 8c c1 29 3c
       -0.0315063 -0.02275903 0.03985616 0.010361087
000180 a2 a6 31 bb cb 08 e1 bd cd c1 9a bd 3e 60 d0 3d
       -0.0027107378 -0.10988005 -0.07556496 0.10174607
000190 b8 35 39 bd b1 9d 27 3d 76 f0 14 3e 3b 6c 60 3d
       -0.045217246 0.04092187 0.14544854 0.054790717
0001a0 8e c9 17 be ee 9d 85 3d be ff 27 be a8 33 e0 bd
       -0.14822981 0.06524263 -0.16406152 -0.10947353
0001b0 16 5d d9 3d 53 a6 ed bd e6 48 1b be 32 b9 b8 bc
       0.10613458 -0.116039895 -0.15164527 -0.022549246
0001c0 19 67 ab bd 31 6d ea 3d ac a2 04 be e7 ab 38 be
       -0.08369274 0.11446608 -0.1295268 -0.18034326
0001d0 73 74 4a be 41 bd 36 3e b4 9f e5 bd 34 8d 22 be
       -0.19770984 0.17845632 -0.112121016 -0.15874177
0001e0 0d 81 07 be 52 53 b7 bd 40 97 d0 3c 2a 2c 1d bc
       -0.13232823 -0.08951439 0.025462747 -0.009593049
0001f0 53 24 13 be db fb f0 bc e8 46 3c be 52 77 a6 bd
       -0.14369325 -0.029416969 -0.18386424 -0.08128227
000200 34 10 04 be 4b c4 12 3e ce c6 19 be c3 34 47 be
       -0.12896806 0.14332692 -0.15017244 -0.19453721
000210 78 4c 1b be 44 8a d2 bc 88 42 02 be 04 89 65 3d
       -0.1516589 -0.025700696 -0.12720692 0.05603887
000220 a8 be c5 bc e4 b2 cc bd b3 c3 1c be 04 09 20 3d
       -0.024138764 -0.09995058 -0.15309028 0.039071098
000230 ba f4 1e 3e 4c ac 1d 3e 8e 60 1f 3d 0e 8c 08 be
       0.15523043 0.15397757 0.03891044 -0.13334677
000240 c9 eb d0 3d cc 88 9e bd f5 af 20 3e c7 f5 15 be
       0.102012224 -0.07740936 0.15692122 -0.14644538
000250 be f7 77 bd 12 ee 9d bc 1d fa 28 be dc ae 07 be
       -0.060539 -0.01927856 -0.1650166 -0.13250297
000260 e9 86 4c be d7 97 e8 3c 87 27 39 3d 00 76 12 be
       -0.19973339 0.028392715 0.04520371 -0.14302826
000270 c0 e9 9f 3d 72 75 35 be e8 0e 8d bd bd 8c 8f bd
       0.07808256 -0.17720583 -0.06887609 -0.070092656
000280 1d 4e 13 bb d0 6f 3b bd 52 fc 9d 3c ec e0 ad bd
       -0.002247698 -0.04576093 0.019285355 -0.08490166
000290 ae 0e e1 3d 22 5c f0 3d a2 9e f4 3c 2c 3e 8e 3c
       0.10989128 0.11736323 0.029860798 0.01736363
0002a0 32 3d f3 bd a4 0d 0a 3d 2f 78 d3 bd c3 d6 5c 3c
       -0.118769065 0.033704415 -0.103256576 0.013478938
0002b0 b2 0f 57 be f6 5e ae 3d d4 27 93 3b ee ba cc 3d
       -0.21002081 0.08514206 0.004490832 0.099965915
0002c0 fe 61 59 bb 8c f3 38 be fe 25 cd 3d c8 37 da 3c
       -0.003316998 -0.18061656 0.10017012 0.026637927
0002d0 5c 10 c0 bd f5 90 9a bd e8 5b b9 3d c8 a1 82 bc
       -0.0937812 -0.075471796 0.09050733 -0.015946284
0002e0 63 3a 6c bd 22 e6 a0 3d b8 f4 d3 bd 34 79 22 3d
       -0.05767287 0.07856394 -0.10349411 0.03966637
0002f0 f3 6e 1a be 98 24 c9 bd 7e fd fb bd 7c 29 76 3d
       -0.15081386 -0.09821433 -0.12304209 0.060098156
000300 1d 34 9b bb 38 92 5a bd 86 e7 40 3e eb c3 f9 3d
       -0.004736437 -0.0533621 0.18838319 0.121955715
000310 42 72 47 bd c9 e6 80 3d 49 90 9f bd 6d a4 83 3d
       -0.04869295 0.06294019 -0.07791192 0.06427846
000320 f3 f6 a9 3d 63 55 21 bd 4b 7e a8 bd 81 8d d2 3d
       0.08299055 -0.03938807 -0.082272135 0.10280896
000330 c0 3f 18 3d 39 99 a7 bd cf 77 c7 3d 44 bc 8c 3d
       0.03717017 -0.08183522 0.097396486 0.06871846
000340 aa c4 01 be 39 d8 24 3c f6 37 17 3e 41 7a 6a bc
       -0.12672678 0.010061317 0.14767441 -0.014311374
000350 41 ca 67 bc 1b 20 88 3d 19 06 12 be 16 b8 cb bd
       -0.014147342 0.06646749 -0.14260139 -0.09947221
000360 8a 37 d1 bc 64 9c e8 bd 04 11 80 bd d7 59 e4 bd
       -0.025539178 -0.11357954 -0.062532455 -0.11149948
000370 cc ca 29 bd 39 a7 0a bd 24 5a aa 3d 15 44 d6 3d
       -0.041453168 -0.033850882 0.08317974 0.10462204
000380 fe 98 ae bd 2b 58 bb 3d 21 ee 26 be c1 51 df bd
       -0.08525275 0.09147676 -0.16301776 -0.10904265
000390 37 4d dc 3d dc 0e 7a 3d 3a 43 e1 bd 26 fc 89 bd
       0.10756915 0.061049327 -0.109991506 -0.067375466
0003a0 8d 2f 73 bd 70 2d aa 3d d8 ea af 3d e5 22 bb 3d
       -0.05937152 0.08309448 0.08589715 0.09137515
0003b0 f7 85 c3 3d 6d 6c a1 bd d8 26 84 bd 56 b5 88 3c
       0.09547036 -0.07882009 -0.06452721 0.01668803
0003c0 62 f4 5a bd b4 ec f3 bd a4 87 ae bd f3 a4 2c 3e
       -0.053455718 -0.11910382 -0.08521965 0.16859798
0003d0 94 b1 2c 3e 83 95 4d 3d 38 a3 b5 39 9e 2e d8 bd
       0.16864616 0.050191414 0.00034644618 -0.105557665
0003e0 78 dc 2f 3e a1 65 a0 3d 33 0d 0e bd 33 f0 cf b8
       0.17173946 0.07831884 -0.034680557 -9.91527e-05
0003f0 f0 dd 8a 3d 7e 2c 0e be 9f 81 5e bd 45 57 f7 bd
       0.067806125 -0.1388416 -0.054322835 -0.12077192

conv1.W_S.weight f4 [100, 100]
000000 0b b8 1a be e5 b3 af bd 9b 90 ff 3d 50 a2 d0 bc
       -0.1510927 -0.08579234 0.12478753 -0.025468022
000010 db 03 0d bd 0f 80 c9 3d 5b eb 95 3d ca 6e 14 be
       -0.034427505 0.09838878 0.07320281 -0.14495388
000020 cd 2f 11 be e2 55 0b be 43 97 c7 3d c8 83 bc 3d
       -0.14178391 -0.1360698 0.09745648 0.09204823
000030 22 af 53 3e 31 7b e6 3c df aa 01 3e 0f 15 33 3d
       0.20672277 0.028134914 0.12662838 0.043721255
000040 41 2c cb 3d 86 a8 29 3c d5 dd 58 3d a4 d9 0c be
       0.0992055 0.0103551205 0.05294593 -0.13754898
000050 4d f1 c7 bd 18 79 38 be 98 7e 06 3e 06 34 a6 bd
       -0.09762821 -0.18014944 0.13134229 -0.081153914
000060 45 f0 bc 3d 34 1e 04 be 7d eb 10 be ee 04 9d bc
       0.09225515 -0.12902147 -0.14152332 -0.01916739
000070 ec ae 80 bd c2 20 d2 bd 3f 33 8d 3d b3 85 4f 3d
       -0.06283364 -0.10260154 0.0689454 0.050664615
000080 ab 84 80 bc dd 21 45 bd a9 e4 a4 3d 71 28 1f bd
       -0.015688261 -0.048127998 0.08051426 -0.038856927
000090 48 13 fe 3d a8 d3 d4 bc bc c5 f2 bd 49 7e e6 3c
       0.12406021 -0.025979832 -0.11854121 0.02813639
0000a0 19 45 ff bc 5e 8a dc 3c 45 2f e4 bd 61 b7 5f 3d
       -0.031160878 0.026921447 -0.111418284 0.054618243
0000b0 a5 b3 ac bd d9 40 d3 bd 06 f9 11 3e 8e 1a af 3d
       -0.08432702 -0.10315103 0.14255151 0.08549987
0000c0 cc 76 d7 3d 74 d5 e8 3d a4 63 4d bd fa 51 0a 3e
       0.105207056 0.11368838 -0.050143853 0.13507834
0000d0 76 65 48 be 40 9d 21 3d db e1 c4 3d 65 b3 b4 3d
       -0.19569954 0.039456606 0.09613391 0.08823279
0000e0 4f 8e 67 bd 15 90 7c 3d 6b b6 de 3c ee d0 35 be
       -0.0565322 0.061660845 0.027186593 -0.17755482
0000f0 05 54 fd 3d 93 c1 f2 3d ba 0c 05 3e fd b6 99 bd
       0.12369541 0.118533276 0.12993136 -0.07505605
000100 52 c6 32 bd d8 ac 08 be b6 a7 07 3e 8d b7 a1 bc
       -0.043646164 -0.13347185 0.1324757 -0.019740844
000110 f0 b5 f7 bd 37 06 1a 3e ed df 66 bd 44 c0 b6 3d
       -0.12095249 0.15041433 -0.056365896 0.089233905
000120 fb 45 88 3d 95 a7 00 bd 74 9c 6b bd 0c 09 ea bc
       0.06653973 -0.03140982 -0.057522252 -0.028568767
000130 72 49 0f bd bd 1c 49 3d ef 08 43 3d 73 6f f1 bc
       -0.034982152 0.049099673 0.04761594 -0.029472088
000140 75 8f ac bd fc 33 dd bc 3e 4f 07 bd 80 89 c8 3d
       -0.084258 -0.027002327 -0.033034556 0.09791851
000150 ef 60 ed 3d 9e eb 2c bd c7 b1 48 bd 70 15 0a 3d
       0.11590754 -0.04221689 -0.048997667 0.03371185
000160 78 fb 31 be 1b 2e 0b 3e c5 f0 5a bd 20 e5 c0 3c
       -0.17381084 0.13591807 -0.053452272 0.023546755
000170 e8 0b 39 bc 51 29 73 3d dd a7 3c 3d 71 45 d8 3d
       -0.011294343 0.059365574 0.046058524 0.1056012
000180 3f d9 e4 3d 75 a8 12 be 68 ca d4 bd 4e 47 0d be
       0.11174249 -0.14322074 -0.103901684 -0.13796732
000190 ad d8 57 3d 18 3e 19 bd d2 a7 04 bd 34 0e e1 bc
       0.052696873 -0.037412733 -0.03238661 -0.027472593
0001a0 2d 37 1f be b7 ea db 3d 70 92 c2 bd 49 f2 84 bd
       -0.15548392 0.10738128 -0.09500587 -0.06491525
0001b0 cc 81 05 3e f7 12 6d 3d 30 4d 10 bd 63 92 38 3e
       0.13037795 0.057879414 -0.03522986 0.18024592
0001c0 55 ff 27 be fa 91 3a 3e 13 14 a5 bd 72 6a 51 bd
       -0.16405995 0.18219748 -0.080604695 -0.051126905
0001d0 6b 03 45 bc c7 d1 e7 3d 9f ec d3 bd 13 19 05 3e
       -0.012024741 0.11319309 -0.10347866 0.12997846
0001e0 74 7a da 3d db 23 e2 3d 30 4a 1f be 03 ad 6f 3d
       0.10667887 0.11041995 -0.15555644 0.058514606
0001f0 48 3e 13 bd 30 ea 9e bd 8b af 37 bd 08 bd ab 3c
       -0.035948068 -0.077595115 -0.044845145 0.02096416
000200 61 d5 32 be 17 66 21 bc e7 30 8e bd cb d3 51 b9
       -0.1746421 -0.009851 -0.06942921 -0.00020010692
000210 27 ff c3 3c 29 76 89 3d 79 62 ce 3c f4 00 a6 bd
       0.023925377 0.067119904 0.02519344 -0.081056505
000220 a1 9f 19 bd 6f 34 bf 3d cc 40 02 bd 1c ce 89 bd
       -0.03750575 0.09336173 -0.031800076 -0.06728765
000230 7b fd 2c 3e 56 e5 d1 3d ef 57 0d be 15 52 11 3d
       0.1689357 0.102488205 -0.13803075 0.03547867
000240 bc 79 05 be 99 8c f6 3d f1 b1 98 3d b8 a4 1d bd
       -0.13034719 0.120385356 0.07455815 -0.038487166
000250 70 49 78 bd 1e f4 39 3c 44 4e eb bc a4 70 f3 bd
       -0.06061691 0.011349706 -0.028723843 -0.11886719
000260 00 30 27 bd 8b 25 e2 bc df d6 c2 3d 25 12 98 3d
       -0.04081726 -0.027605793 0.0951364 0.07425336
000270 7d ee 46 bc ec f2 8c 3d b7 3f b5 3d 54 3c 98 3d
       -0.012141821 0.06882271 0.08850043 0.07433382
000280 74 2f c5 bd 19 30 d6 3d f6 6a 8c 3d a3 f2 b6 bd
       -0.096281916 0.10458393 0.06856339 -0.08932998
000290 b8 55 d0 3d 34 9a 5a be 93 d3 46 3d f1 19 cd bd
       0.101725996 -0.21347886 0.048541617 -0.100147136
0002a0 3b dd 6e bd 1b 78 ae 3d 14 7d f5 3d 21 8e fd bd
       -0.05831645 0.08519002 0.119867474 -0.123806246
0002b0 19 53 b6 bd bc ec 30 3e 99 64 c9 3c 88 8a ca bd
       -0.08902568 0.17277807 0.024584102 -0.09889704
0002c0 f8 b0 47 3d 21 b0 56 bd 1a 20 1c be 59 e7 46 3e
       0.048752755 -0.052414063 -0.15246621 0.1942419
0002d0 91 58 a8 3d de 69 86 bd ac f8 91 3d c1 72 0f be
       0.08220018 -0.06563161 0.071275085 -0.14008619
0002e0 f8 43 27 be 8d a7 26 3e d2 0b 28 be 33 6a 5b 3d
       -0.16334522 0.16274853 -0.16410759 0.053568076
0002f0 cf 34 64 bd 24 e7 8c 3d 0d 31 97 bd a7 ee ad 3d
       -0.055714425 0.06880024 -0.073824026 0.08492785
000300 82 c4 f7 bd d7 e7 6f bd 46 02 c4 3d d4 22 b5 bd
       -0.12098028 -0.05857071 0.09570746 -0.088445336
000310 da 31 bb 3d 80 3a 2a 3e 97 e0 fe 3d 0b 6c de bd
       0.09140368 0.16623878 0.12445181 -0.10860451
000320 5e 76 02 3c 6b 86 02 be c1 d1 1d 3e 27 d2 2a bd
       0.007962791 -0.12746589 0.15412046 -0.041704323
000330 04 2b 23 3e d5 d0 e9 3d b4 22 cb bd c2 93 f5 bd
       0.15934378 0.11416785 -0.099187285 -0.11991073
000340 f6 73 74 bd ad 47 57 bc a4 b2 55 bd 01 db 8a bb
       -0.0596809 -0.013139647 -0.052172318 -0.004237533
000350 a2 d0 aa bd 51 86 e5 3d 1f 6d 8a bd 71 bf d4 bd
       -0.08340575 0.112072594 -0.067590944 -0.10388077
000360 21 46 28 bd 46 9f 1c be b8 e5 1e be 07 d0 21 bd
       -0.041082505 -0.15295133 -0.15517318 -0.03950503
000370 94 a4 c1 bc 8c 8b e4 bd 6c fa 68 bd 05 a6 cc 3d
       -0.023638047 -0.11159429 -0.056879446 0.09992603
000380 01 b2 d6 3d 78 f5 91 3c e0 a2 d6 bd 01 0a 2b bd
       0.1048317 0.017817244 -0.10480285 -0.041757587
000390 19 53 8e 3d 30 e3 e4 3d bf 64 c1 bd e7 38 13 be
       0.06949443 0.11176145 -0.09443044 -0.14377175
0003a0 7c 56 d3 bd ac 91 17 3c 22 72 cb bd fd dd 51 bd
       -0.1031923 0.0092510395 -0.099338785 -0.051237095
0003b0 57 4d 03 3e 3b e6 df 3d 40 ad de bc 78 6d 0e be
       0.12822472 0.10932585 -0.027182221 -0.13908947
0003c0 f1 be 29 3c 13 21 30 3d ce 1d a4 bd 76 ed 1d 3e
       0.010360465 0.043000292 -0.08013497 0.15422615
0003d0 5c 92 37 bd 06 03 b0 3c 57 48 91 3d 61 0f ee 3c
       -0.044817314 0.021485817 0.07093876 0.029060068
0003e0 88 81 e2 3c d0 4f f8 3d 27 dd 78 bb 3b 66 0d be
       0.027649656 0.12124598 -0.0037973614 -0.13808529
0003f0 7a 3f f5 bc 7b 8b 01 3e e5 83 98 bd 4d e6 1b 3e
       -0.029937495 0.12650864 -0.07447032 0.15224572

conv1.W_S.bias f4 [100]
000000 4b 90 86 3d 30 42 19 bd 52 f2 31 3d bc 50 14 bd
       0.065704904 -0.037416637 0.043443985 -0.036209807
000010 b4 68 0b bd 02 c4 12 3d 56 52 82 3d 4a d3 ee bb
       -0.0340354 0.03583146 0.063633606 -0.007288371
000020 e4 d7 3c bb 4a c9 9e 3d 91 13 bf 3d be 56 a8 3d
       -0.0028815204 0.077532366 0.09329904 0.0821967
000030 e7 75 72 bd 3f ea a6 3d 95 d4 ca 3d a0 2a 79 bd
       -0.05919447 0.08150148 0.09903828 -0.060831666
000040 0f b0 75 bd 5b 81 3c 3d 08 8e 9d 3b 37 41 a6 bd
       -0.059982356 0.0460218 0.004808191 -0.081179075
000050 70 e8 6e bd 1f cb b3 3d 60 3a 9d 3d fd 38 ab bc
       -0.05832714 0.08778977 0.0767715 -0.020901198
000060 0b 43 55 3d 95 08 30 3d cd 8e b5 3d 34 2a 89 bd
       0.05206589 0.042976934 0.08865128 -0.06697503
000070 e4 0b 96 bd 52 97 95 3c c1 96 4f 3c c6 dc ea bb
       -0.07326487 0.018260632 0.01267022 -0.0071674315
000080 9b e6 1e bd 0c d6 4e bd 4f 62 eb bc 73 8b 3f bd
       -0.03879414 -0.0504971 -0.0287334 -0.04676385
000090 45 66 b3 bd b8 fa 16 3d ba 89 a6 bd c0 7b 8c bd
       -0.08759741 0.036860198 -0.08131738 -0.06859541
0000a0 72 07 39 3d a4 f8 6c bd 8d de 6b bd 99 be 68 bd
       0.045173116 -0.05785431 -0.057585288 -0.056822393
0000b0 64 74 ab 3d 96 e0 2b bd b4 f6 98 bd b6 be c1 3c
       0.08371809 -0.04196223 -0.0746893 0.023650508
0000c0 06 75 a9 3d 08 4a aa 3d 19 d5 6f 3d 81 b6 8b bd
       0.082742736 0.083149016 0.058552835 -0.06821919
0000d0 6d 7b c8 bc c4 08 c9 bc 0e 4d b7 bd 84 a0 91 3c
       -0.024472916 -0.024540313 -0.08950244 0.017776735
0000e0 b8 9f 17 bd d8 a0 a3 bd 24 07 19 3d 6f ae 63 3d
       -0.037017554 -0.07989663 0.037360325 0.055586275
0000f0 31 87 4f bd a0 d5 99 bd 6b 9b 8b bd 1a c4 24 3d
       -0.050666038 -0.07511449 -0.06816753 0.04022608
000100 08 04 55 bc 24 d3 85 3d 4a ea 1d bd 3f 95 89 3d
       -0.013001449 0.065344125 -0.038553514 0.067179196
000110 22 35 eb bc 36 2e 83 bc 9a 2a 74 3d 47 ba fa bc
       -0.02871186 -0.016013246 0.05961094 -0.030606402
000120 d9 3d 95 3d 26 d2 02 bd b4 fa 9a bd fc 0e 59 3b
       0.07287187 -0.031938694 -0.07567349 0.0033120504
000130 d8 5d 6c 3d 8c 3c 22 bc 72 aa 46 3d f3 35 6e bd
       0.057706684 -0.009902131 0.048502393 -0.05815692
000140 39 2d 13 3d 93 5b b9 3d dc 55 b1 bc 85 69 92 3d
       0.0359318 0.090506695 -0.021647386 0.071490325
000150 6b 3b 8e 3d 93 99 83 bd eb 80 0b bd 91 5d 84 bd
       0.06944927 -0.06425776 -0.034058493 -0.06463159
000160 5c 7a ac 3d 60 32 51 3d 5e da b5 3d 7d 2b 93 bd
       0.08421776 0.051073432 0.08879541 -0.07186029
000170 bc 32 e0 3c 98 d7 35 3d 4f cc ab bd 95 13 c5 3d
       0.027367942 0.04439506 -0.08388578 0.096228756
000180 51 1d 86 3d 7a 50 32 bd 26 ee 90 bd ea aa aa 3d
       0.065485604 -0.04353378 -0.07076673 0.083333805

conv1.W_rel.weight f4 [100, 100]
000000 86 60 8e 3c 22 9d dc bb f2 18 0d 3e 02 1b 7d be
       0.01738001 -0.006732599 0.13779047 -0.24717334
000010 7b b9 80 bd c9 ca 70 bd 76 70 2a be 25 18 0e 3e
       -0.062853776 -0.05878714 -0.16644463 0.13876398
000020 73 eb a2 bd 39 7a a0 3e db 83 01 be cf e9 a8 bc
       -0.079550646 0.31343248 -0.12647955 -0.020619301
000030 ee 9f 2d bd 9c fb 37 be 15 0a e5 bd 02 c0 c4 bc
       -0.04238885 -0.17967075 -0.111835636 -0.024017338
000040 0f 55 6f 3d 9d e9 46 3d 7d 94 4e be 41 21 00 be
       0.058430728 0.048562635 -0.20173831 -0.12512685
000050 c3 44 58 3e 82 8f 77 3e 80 a5 3e 3e a6 9a 87 bd
       0.2111998 0.24175838 0.1861782 -0.06621294
000060 7f 5d 27 3e 9c b9 c2 3c 81 e5 43 3c be 3f 8f 3d
       0.1634426 0.023770146 0.011956573 0.0699458
000070 49 70 63 bd f2 ac de 3d 65 da 6f 3d f2 91 0d be
       -0.055527005 0.108728305 0.058557887 -0.13825205
000080 c8 81 5f 3d 54 cc 24 bc 11 27 33 3e 59 76 eb bc
       0.05456713 -0.010058481 0.17495371 -0.028742956
000090 d2 e4 3a 3e 1c f0 c4 bd 2b 8f f0 bd af 6d 77 3c
       0.1825135 -0.0961611 -0.11746057 0.015101834
0000a0 e7 09 4f bd e8 db 02 be c4 3b 30 3e 95 2a 02 bc
       -0.050546553 -0.127792 0.17210299 -0.007944723
0000b0 08 32 9f 3d 96 9f e5 bd d3 84 87 3c 96 10 b5 3b
       0.077732146 -0.11212079 0.016542828 0.005525659
0000c0 be ee 54 3e 8c a4 96 3d da 86 ea 3d 75 6d e1 bd
       0.20794198 0.073556036 0.11451502 -0.110072054
0000d0 84 77 f6 bd d6 2d 57 be 66 08 ce bd 8b df de bb
       -0.120345145 -0.21013579 -0.100601956 -0.0068015507
0000e0 83 c3 d4 bd de 06 19 3d 71 91 36 3e c8 cd 03 bd
       -0.103888534 0.037360065 0.17828919 -0.03217867
0000f0 d0 96 39 be df f2 67 3e c7 cc 25 be ea 51 92 bd
       -0.18123937 0.22651242 -0.16191398 -0.0714453
000100 b2 2a 09 39 e8 ff 87 bd 1a 46 bb bd df bd e5 3d
       0.00013081243 -0.06640607 -0.0914423 0.11217856
000110 34 fe 80 3d a1 04 18 bd 29 7e f8 bd 2b 7f bb bc
       0.062984854 -0.03711379 -0.12133438 -0.022887787
000120 54 c4 1b be 6b 88 0e be 59 c1 f3 bc bb 37 54 3e
       -0.15211612 -0.13919227 -0.029755281 0.20724384
000130 56 1b 41 be cf e7 fc bd 77 e6 be 3d 7e ef 8a bd
       -0.18858084 -0.123489015 0.093213014 -0.06783961
000140 9a 9d e7 3b 0f 9e f0 bd 2a 94 15 3e c6 58 3e be
       0.007068348 -0.11748897 0.14607301 -0.18588552
000150 30 97 83 bd e9 1e 01 be dc 24 4a 3e 33 a6 57 be
       -0.06425321 -0.12609448 0.19740623 -0.21059494
000160 9c ef fb 3c 68 c1 09 3c 51 08 9e 3c 6c 58 fe bd
       0.030753903 0.008407928 0.019291075 -0.12419209
000170 b3 c5 97 bd f4 97 34 be a6 4a 0b 3e ff 1d ea 3d
       -0.07410755 -0.1763609 0.13602695 0.114315026
000180 70 c5 83 bc 02 78 e4 bd c0 fc e8 bd f8 74 2e be
       -0.016085356 -0.11155702 -0.11376333 -0.17036808
000190 01 3e 8a 3c 88 f2 94 bd 17 38 1f 3d a8 4e fb 3d
       0.016875269 -0.07272822 0.03887185 0.12270862
0001a0 f0 37 30 3b eb e1 fd 3c bc 28 72 bd 83 46 ca 3d
       0.002688881 0.030991515 -0.05912088 0.0987673
0001b0 2c 32 84 bc a5 bf 07 be 82 0d ce 3d 87 96 96 bc
       -0.016137205 -0.132567 0.1006117 -0.018382324
0001c0 62 f1 1e bc 39 39 64 bd 33 b7 1d 3b 42 9e 88 3b
       -0.009701105 -0.055718634 0.0024065494 0.0041692564
0001d0 eb 92 b0 bc 65 15 86 bc c1 6e e0 3d 3d 29 c5 bc
       -0.021554431 -0.016367624 0.10958625 -0.024067516
0001e0 ef cc 73 bd 44 70 19 3e 99 ee ef bd 38 9e 01 be
       -0.05952161 0.14984232 -0.11715431 -0.12658012
0001f0 14 3c b4 3d 27 aa 0a be 8e d0 3c 3e 1a 11 3d 3c
       0.088005215 -0.1354147 0.18438932 0.011539722
000200 68 0e c9 bd ab 77 cc 3c fd 8a 04 3c dc 2a ff bd
       -0.09817201 0.024959406 0.008089778 -0.12459347
000210 8a bc 3c 3e e9 ab 1a be b3 0e 12 be 8f e4 ca bd
       0.18431297 -0.15104641 -0.1426342 -0.09906875
000220 49 6a 9f 3d ad 1a 9b 3d 1d 56 c6 bd 42 60 a2 bd
       0.07783944 0.075734474 -0.096843936 -0.07928516
000230 14 3b f5 3b 9c 56 8e bc d6 91 3d 3d 43 15 f2 3c
       0.0074838493 -0.017375283 0.046281658 0.029551154
000240 3a 90 36 be ed 23 1b 3e d1 36 00 3c 21 e1 dc 3d
       -0.17828456 0.15150423 0.007825569 0.107851274
000250 16 17 09 be 5a 76 76 3d 03 af 21 be 52 6d 2b 3d
       -0.13387713 0.060171463 -0.15789418 0.041852303
000260 b2 91 fc 3c 93 51 70 3d 38 1a 35 be dc 58 7a bd
       0.030831192 0.058671545 -0.17685783 -0.0611199
000270 c0 b3 2e 3c 7e a1 24 3d b8 ed 12 3e 0e 6e 06 3b
       0.010662973 0.040193073 0.14348495 0.0020512375
000280 42 cb d7 ba c0 57 2b be 78 1a 72 3d 27 0d 14 3e
       -0.0016463774 -0.16732693 0.059107274 0.14458142
000290 0c f8 6f bd 81 b8 4d be 02 8d 45 3d a2 f2 ce bd
       -0.058586165 -0.20089914 0.04823018 -0.10104872
0002a0 12 cb 22 3e cf 3c f0 3b 72 6a 6d 3c 59 76 40 3b
       0.15897778 0.0073314677 0.014490711 0.0029367416
0002b0 45 30 3e be bf 89 e9 bd 9f 87 e3 bd c0 da cc 3d
       -0.18573101 -0.11403226 -0.11109852 0.10002661
0002c0 f0 95 f9 3d d1 e2 10 bd fd eb 94 ba e7 8a 80 bd
       0.121868014 -0.03537256 -0.0011361834 -0.062764935
0002d0 62 bd ef 3d 0d cc 74 3d 61 9b cc bd d6 ed e0 3d
       0.11706044 0.05976491 -0.09990574 0.109828636
0002e0 8a 75 bf bd df ac fb bc 54 fa 17 3e 1f 8f 91 3d
       -0.09348591 -0.03072208 0.14841586 0.07107376
0002f0 de ac c5 bd 9e 26 c7 3d 88 03 37 bd 6a a9 dc 3d
       -0.096521124 0.097241625 -0.044681102 0.10774501
000300 b8 b0 5f bd 65 9c 46 3c c4 93 8b 3c d7 74 2f bd
       -0.05461189 0.012122248 0.017038234 -0.042836037
000310 02 d4 60 3d cd 27 33 bd 1b a5 2c be 6b a0 08 bd
       0.054889686 -0.04373913 -0.16859858 -0.03335611
000320 c4 e4 9b 3d cf ac 60 3e 95 df 52 bc 33 d9 08 be
       0.07611993 0.21940921 -0.012870689 -0.13364105
000330 f2 ed 0d be 1f 12 d4 3d 2b e4 24 bc de 28 0e 3d
       -0.138603 0.10355019 -0.010064165 0.034706943
000340 88 91 aa bd ba 74 8b bd de ce c1 3d 88 74 af 3c
       -0.08328539 -0.06809373 0.09463285 0.021417871
000350 cf 51 0f be 3a 9d 24 3d a2 6b d2 3d 28 38 1d 3d
       -0.13996051 0.040189005 0.102744356 0.038383633
000360 f0 e6 4e 3d ec f1 63 3d b9 b4 9c bd b0 98 90 bd
       0.050513208 0.055650637 -0.076516576 -0.07060373
000370 5a 23 dd bd bf 9e 0f 3e 1e 7a 35 3e 96 cb 01 3e
       -0.107977584 0.140254 0.17722365 0.12675318
000380 18 dd 00 3e 7d 6a e5 3d 90 31 08 3e 38 85 27 3e
       0.1258434 0.11201952 0.13300157 0.16359413
000390 6a 9e 50 3e 4c 35 57 3d 85 10 59 bc 38 65 0f 3e
       0.2037293 0.052541062 -0.0132485675 0.14003456
0003a0 f2 cd 80 bd 71 cb 52 3d 3c 83 86 bd 05 d1 bf bd
       -0.06289281 0.051463548 -0.06568 -0.09366039
0003b0 10 cd 29 3d 32 31 f7 bd b8 e7 17 be 85 da eb bd
       0.04145533 -0.1206993 -0.14834487 -0.11516289
0003c0 c6 46 15 3e 9b c7 66 bb 89 67 50 be bc 5e 60 bd
       0.14577779 -0.003521419 -0.20351996 -0.054777846
0003d0 6d 4a c4 bd a4 8d c0 3d 73 38 26 3e 0f 66 f2 bd
       -0.09584508 0.09402016 0.16232471 -0.118358724
0003e0 b0 06 97 bd 67 e8 cb 3c 35 0a 00 bd 61 6b 9d 3d
       -0.073743224 0.024891092 -0.031259734 0.076864965
0003f0 cc aa 42 be 94 82 40 3e 94 31 58 3e 37 bd 21 be
       -0.19010466 0.18799812 0.21112663 -0.15794836

conv1.bn.weight f4 [100]
000000 0c a2 7e 3f 27 f0 76 3f 7d 86 7c 3f e3 12 76 3f
       0.99466014 0.96460193 0.9864271 0.9612257
000010 e9 da 6f 3f 23 f6 80 3f 94 b6 74 3f 70 b7 85 3f
       0.93693405 1.0075115 0.9559109 1.0446606
000020 5c 85 7a 3f 60 a7 81 3f 3e 83 84 3f ef 00 83 3f
       0.9785974 1.0129204 1.0352552 1.023466
000030 1d 2a 7b 3f 53 14 7e 3f c9 af 72 3f dd 65 70 3f
       0.98111135 0.9924976 0.94799477 0.9390543
000040 a5 1f 6e 3f e0 f5 7b 3f 8b 6b 80 3f 2c 4a 73 3f
       0.93017036 0.9842205 1.003282 0.9503505
000050 f7 83 81 3f c0 f3 74 3f 33 14 78 3f 96 69 80 3f
       1.0118397 0.95684433 0.9690582 1.0032222
000060 46 cb 81 3f 14 be 80 3f ea cf 72 3f b8 5a 82 3f
       1.0140159 1.0058007 0.948485 1.0183935
000070 79 87 75 3f c9 42 74 3f d5 26 81 3f 50 4b 72 3f
       0.9590984 0.95414406 1.0089976 0.9464617
000080 ee 01 83 3f d1 de 85 3f 8e 93 82 3f 4f e2 71 3f
       1.0234964 1.0458623 1.020128 0.94485945
000090 c2 88 82 3f 29 37 6f 3f 8a 87 6c 3f d8 ee 76 3f
       1.0197985 0.9344354 0.92394316 0.96458197
0000a0 9f 95 6f 3f d5 9f 73 3f 69 bc 6f 3f f0 0b 81 3f
       0.9358768 0.9516576 0.93646866 1.0081768
0000b0 1a d6 7e 3f ee 51 79 3f 43 15 7e 3f ec 2f 80 3f
       0.99545443 0.9739064 0.9925119 1.0014625
0000c0 70 b1 83 3f e7 72 81 3f 22 b3 76 3f 69 18 83 3f
       1.0288525 1.011319 0.96367085 1.0241824
0000d0 b9 5f 83 3f ce a8 83 3f 4a 3a 83 3f 43 65 7d 3f
       1.0263587 1.028589 1.0252163 0.9898264
0000e0 d7 32 83 3f 76 75 83 3f d7 c5 7f 3f 83 d4 74 3f
       1.024989 1.0270221 0.99911255 0.9563677
0000f0 72 4a 75 3f 9a 88 77 3f 1f 78 7a 3f 5a 57 7d 3f
       0.9581672 0.9669281 0.9783954 0.9896141
000100 cd ad 7c 3f 81 53 84 3f 57 21 88 3f 9b 45 84 3f
       0.987027 1.0337983 1.0635175 1.0333742
000110 dd 8a 82 3f 30 27 84 3f 8c de 84 3f bd 25 6c 3f
       1.0198628 1.0324459 1.0380416 0.92245084
000120 25 aa 82 3f f5 9e 83 3f 07 f2 89 3f 0c 6c 83 3f
       1.0208174 1.0282885 1.0776986 1.0267348
000130 4a 56 73 3f 98 41 77 3f c0 ce 70 3f cc d8 83 3f
       0.9505354 0.96584463 0.94065475 1.0300536
000140 ed 1a 83 3f 55 b0 77 3f c2 f2 76 3f 00 c9 80 3f
       1.0242592 0.96753436 0.9646417 1.006134
000150 99 4f 6b 3f 41 58 72 3f b0 f8 81 3f 1a 68 87 3f
       0.9191833 0.94665915 1.0154018 1.0578644
000160 ec 81 83 3f 43 a5 80 3f 50 1a 74 3f 64 ae 72 3f
       1.0274024 1.0050434 0.9535265 0.9479735
000170 d7 30 7d 3f d7 14 7b 3f a3 64 83 3f cb 87 79 3f
       0.9890265 0.98078674 1.0265087 0.9747283
000180 63 9b 7c 3f 5e 5d 83 3f 28 cc 7c 3f 7e cf 6f 3f
       0.986746 1.0262868 0.9874902 0.9367598
