Models/transe_model.pt (torch, 573261 bytes, 2 tensors)

entity_emb.weight f4 [1316, 100]
0	0x3e0a1668	0.1348511
1	0x3d309eeb	0.043120306
2	0x3e0aa90c	0.13541049
3	0xbe62364a	-0.22091022
4	0xbd5ac979	-0.053414796
5	0xbdc5a24b	-0.096500956
6	0xbe0987c2	-0.13430694
7	0xbe32e954	-0.1747182
8	0xbc793f1f	-0.015212803
9	0x3e096049	0.13415636
10	0xbe0aab64	-0.13541943
11	0x3e7dccd2	0.24785164
12	0x3e31e8a7	0.17373906
13	0xbdfcb97b	-0.12340065
14	0xbe675895	-0.22592385
15	0xbe6a4bb7	-0.22880445
16	0xbe957095	-0.29187456
17	0xbe0aaab1	-0.13541676
18	0xbe61f7f6	-0.22067246
19	0x3d484970	0.04889816
20	0xbd62afa2	-0.055343278
21	0x3e090d08	0.13383877
22	0xbe0aa3b8	-0.13539016
23	0xbea68f77	-0.3253133
24	0x3e6439f6	0.22287735
25	0x3dad2799	0.08454818
26	0xbe07d42a	-0.13264528
27	0xbe3e58c9	-0.18588556
28	0x3e0aa8fb	0.13541023
29	0xbe6be291	-0.23035647
30	0xbe845041	-0.2584248
31	0xbe854c0f	-0.2603459
32	0xbe8d3e44	-0.27586567
33	0x3df2fc2a	0.11864503
34	0x3ddbb7d4	0.10728422
35	0x3df7a35a	0.12091704
36	0x3dd97652	0.10618271
37	0xbe094007	-0.1340333
38	0xbd5527a7	-0.05203977
39	0x3e0a4284	0.13501936
40	0xbe1669da	-0.14688817
41	0xbe0e13fc	-0.13874811
42	0x3e3d7522	0.18501714
43	0x3e239551	0.15974928
44	0x3e237022	0.15960744
45	0x3e20b326	0.1569334
46	0xbeb152df	-0.34633538
47	0x3e003bde	0.12522838
48	0x3e0aa92a	0.13541093
49	0x3dc79c20	0.09746575
50	0xbe5bcc70	-0.21464705
51	0x3e191f7a	0.14953414
52	0x3dd8ff0f	0.105955236
53	0x3d40f3a0	0.04710734
54	0xbe0722e1	-0.13196899
55	0x3e92c955	0.2866923
56	0x3d62a7cd	0.05533581
57	0xbd1eb8db	-0.03875051
58	0x3e477e5c	0.19481796
59	0xbe235152	-0.1594899
60	0x38a79e60	7.99268e-05
61	0x3e0a37f0	0.13497901
62	0x3e3b9069	0.18316807
63	0x3df61c2c	0.12017092
64	0xbd61983d	-0.055076826
65	0xbe7b814b	-0.2456104
66	0xbe1c07fb	-0.1523742
67	0x3e1592a3	0.14606719
68	0xbebe51ed	-0.3717188
69	0xbd853faf	-0.06506287
70	0xbe0aa8ae	-0.13540909
71	0x3e1813c6	0.14851293
72	0x3e69a5f6	0.22817215
73	0x3caa7244	0.02080644
74	0xbe33b420	-0.17549181
75	0xbe2e1458	-0.16999948
76	0xbd0cdb20	-0.03438866
77	0xbe140532	-0.14455107
78	0x3c356030	0.011070296
79	0x3de167dd	0.110061385
80	0xbecac192	-0.39600807
81	0x3dd392ec	0.103307575
82	0xbe0d2dae	-0.13786957
83	0xbe0a9b79	-0.1353587
84	0xbdf24732	-0.11829986
85	0xbc337d73	-0.010955202
86	0x3e070184	0.13184172
87	0x3e5e234b	0.2169315
88	0xbe7d6247	-0.24744521
89	0xbe1624a4	-0.14662415
90	0xbd62ddec	-0.055387422
91	0x3d61acfa	0.055096604
92	0xbe0a7db3	-0.13524513
93	0x3ecbe63e	0.39824098
94	0x3db1a13a	0.0867333
95	0x3e0a97e6	0.13534507
96	0x3e494c59	0.1965803
97	0x3e3635f9	0.17794026
98	0xbe3fb662	-0.18721917
99	0x3e517c4a	0.20457569
100	0x3bbf9ec8	0.0058477856
101	0xbe38cd30	-0.18047023
102	0x3bae98ef	0.0053282897
103	0x3e5a30d9	0.21307696
104	0x3d2f3421	0.042774323
105	0x3e47c338	0.19508064
106	0xbbce3cce	-0.0062938696
107	0x3e368b67	0.17826615
108	0xbdfcbd5b	-0.12340804
109	0x3bd14289	0.0063861054
110	0xbbaec503	-0.005333544
111	0xbe23f186	-0.16010103
112	0xbe4832de	-0.19550654
113	0x3e5456a7	0.2073618
114	0xbe11c368	-0.14234698
115	0xbdfdce2b	-0.12392839
116	0xbe551b65	-0.20811231
117	0xbbae98c2	-0.0053282687
118	0x3e391c57	0.18077217
119	0xbd2e114a	-0.042496957
120	0x3d2f75f8	0.042837113
121	0x3bb6ebcb	0.005582308
122	0xbbb047f2	-0.0053796703
123	0xbe32cff1	-0.17462136
124	0xbe0f674d	-0.1400425
125	0x3dfce5ee	0.12348543
126	0x3e02b8a2	0.12765744
127	0x3e38c7af	0.18044923
128	0x3baeba98	0.0053323023
129	0xbde87d98	-0.1135208
130	0x3e140889	0.14456381
131	0xbe19e59b	-0.15028994
132	0xbdea075b	-0.11427184
133	0x3e3e273b	0.18569653
134	0xbe0419d0	-0.12900472
135	0xbe0ff0c9	-0.14056696
136	0x3e0d7e57	0.13817726
137	0xbe10d2ab	-0.14142863
138	0x3d2edd4c	0.042691514
139	0x3e47d716	0.19515643
140	0x3e4ec493	0.20192175
141	0xbe0cf251	-0.13764311
142	0x3e0e273b	0.13882153
143	0xbe56deac	-0.2098338
144	0xbdd33483	-0.1031275
145	0xbe191515	-0.14949448
146	0xbe3371f4	-0.17523938
147	0xbddcbf1c	-0.10778639
148	0x3baf4547	0.0053488347
149	0x3e34dfa2	0.17663434
150	0x3e3e71d6	0.18598112
151	0xbdce2dfd	-0.10067365
152	0x3e5fa39e	0.21839759
153	0x3e196912	0.14981487
154	0xbbef2942	-0.0072986195
155	0x3e02f6cc	0.12789458
156	0xbd2f7b8b	-0.04284243
157	0x3e11c359	0.14234675
158	0xbe4734e2	-0.19453767
159	0x3e217301	0.15766527
160	0x3e3e8fa2	0.18609479
161	0x3bbbe4ce	0.0057340628
162	0xbdb7494e	-0.08949529
163	0x3ddf0e47	0.10891395
164	0x3d2f51ec	0.042802736
165	0x3e18b04d	0.14911003
166	0xbde916a3	-0.11381271
167	0xbe2cf6b4	-0.16890985
168	0x3e214016	0.15747103
169	0x3dfed7ec	0.124435276
170	0xbbaf85bb	-0.005356518
171	0xbe35557a	-0.17708388
172	0x3e54fe7c	0.20800203
173	0x3e5d62c7	0.21619712
174	0xbe100af9	-0.14066686
175	0x3e7112ef	0.23542379
176	0x3e2ce10b	0.16882722
177	0xbe0a9a05	-0.13535316
178	0xbe3bb7e0	-0.18331861
179	0x3debee8b	0.11520108
180	0x3e8b0b77	0.27157184
181	0x3de2cf07	0.110746436
182	0x3e474ec9	0.19463648
183	0xbbafc863	-0.005364464
184	0x3e818c4c	0.2530235
185	0xbe08b361	-0.13349678
186	0x3bf1c5cd	0.007378316
187	0xbe6622a7	-0.22474156
188	0xbe38399b	-0.17990725
189	0x3e0d373a	0.13790599
190	0x3e1d35d9	0.15352573
191	0xbd2f5147	-0.04280212
192	0xbbb371bd	-0.005476205
193	0xbdab0171	-0.08349884
194	0x3e0576f8	0.13033664
195	0x3bb00988	0.00537223
196	0x3dfa6b7d	0.12227533
197	0x3e33ccf2	0.17558649
198	0xbe5ec705	-0.21755607
199	0xbe522b04	-0.20524222
200	0xbd5a7433	-0.053333472
201	0x3e2102dd	0.15723749
202	0xbd5d4e64	-0.054029837
203	0x3e20d7ef	0.15707372
204	0x3d56be65	0.052427668
205	0x3df9608a	0.121766165
206	0x3d586cd8	0.052838176
207	0x3dc999e7	0.09843808
208	0xbe2842b7	-0.164317
209	0xbd580eb8	-0.052748412
210	0x3d5d4115	0.054017145
211	0xbdcec2e9	-0.1009577
212	0x3dc64b93	0.096823834
213	0x3e4e7fee	0.20165989
214	0xbe5f303a	-0.2179574
215	0x3e3b0dbf	0.18266962
216	0x3e3ee400	0.18641663
217	0x3d5d4b7e	0.054027073
218	0x3e3d1a5a	0.18467084
219	0xbd4cda9f	-0.05001318
220	0x3d58909c	0.052872285
221	0xbd460dc2	-0.048352964
222	0x3d5d0b41	0.05396581
223	0xbe3b4506	-0.18288049
224	0x3e5358ea	0.20639387
225	0x3e1a4ac1	0.15067579
226	0x3e207560	0.15669775
227	0x3e468d46	0.19389829
228	0xbd5d4670	-0.054022253
229	0x3e379bee	0.17930576
230	0x3de08ba0	0.10964131
231	0x3e01aacf	0.12662815
232	0x3e22776c	0.15865868
233	0xbe02cb3d	-0.12772842
234	0x3df3e40f	0.11908733
235	0xbe361bc5	-0.1778403
236	0x3dc1ebfc	0.094688386
237	0x3dd0e20e	0.101993665
238	0x3d54723b	0.05186675
239	0x3e1cad92	0.15300587
240	0x3e293aef	0.16526388
241	0x3dc0dc47	0.094170146
242	0xbdd472cd	-0.10373459
243	0x3e16197a	0.14658156
244	0xbe4678e2	-0.1938205
245	0x3e25e595	0.1620086
246	0x3e1ba60a	0.15200058
247	0xbe6f4949	-0.233678
248	0xbd5d0dd8	-0.05396828
249	0xbe1cc83d	-0.1531076
250	0x3e38dc9b	0.18052904
251	0x3e612e49	0.21990313
252	0x3e6cd39a	0.23127595
253	0xbe4f2ac3	-0.20231156
254	0x3d307c76	0.043087445
255	0xbe57a211	-0.21057917

relation_emb.weight f4 [28, 100]
0	0x3dd0ecfa	0.1020145
1	0xbcdd2bd0	-0.02699843
2	0x3dd20b11	0.10256017
3	0x3bb1f7e7	0.0054311636
4	0x3d48b86e	0.04900401
5	0xbcd5dd50	-0.026106507
6	0xbdd073fe	-0.10178374
7	0x3d265670	0.040609777
8	0x3c99c2f8	0.018769726
9	0x3dd05e7f	0.10174274
10	0xbdd20d36	-0.10256426
11	0xbb276626	-0.0025543063
12	0xbb328e32	-0.00272454
13	0xbd0bafb0	-0.034103096
14	0x3c9877b8	0.018611774
15	0xbd5673e8	-0.05235663
16	0x3d27a354	0.040927246
17	0xbdd20cbd	-0.10256336
18	0x3d046ca5	0.032330174
19	0xbd53a3aa	-0.051669754
20	0x3d45c736	0.048285685
21	0x3dd9c0af	0.106324546
22	0xbdd1fd4c	-0.10253391
23	0xbb596de4	-0.0033177072
24	0xbc195900	-0.009359598
25	0x3d498e6b	0.049208086
26	0xbcce67d7	-0.025196
27	0x3c86c3eb	0.016450843
28	0x3dd20b64	0.10256079
29	0x3b8362df	0.004009589
30	0xbcf2af05	-0.029624471
31	0xbb6e705e	-0.0036382894
32	0xbce33236	-0.027733903
33	0xbcff7ac7	-0.031186474
34	0x3ab60206	0.0013886101
35	0xbcf962f4	-0.030442692
36	0x3ce7020c	0.028199218
37	0x3bd21ec8	0.006412361
38	0x3d4b7de0	0.04968059
39	0x3d1260eb	0.03573696
40	0xbd31e797	-0.043433752
41	0xbd071dfd	-0.032987583
42	0x3c6b3fe5	0.014358495
43	0x3cc87417	0.024469418
44	0x3d0134b2	0.031544395
45	0x3d1989e8	0.037485033
46	0x3b20d5a6	0.0024541407
47	0xbd0eb3fa	-0.034839608
48	0x3dd21c58	0.102593124
49	0xbd10cc21	-0.035350922
50	0x3c9f7784	0.01946617
51	0x3cb8b54f	0.022547392
52	0xbc0d24f1	-0.008614765
53	0xbd25c317	-0.040469255
54	0xbddb4f69	-0.10708506
55	0x3b97247c	0.0046125036
56	0xbd45d181	-0.0482955
57	0x3d161297	0.036638822
58	0x3d1f1884	0.03884174
59	0x3b9900dc	0.004669292
60	0xbc2d3a75	-0.010573019
61	0x3dd10de8	0.102077305
62	0x3ca4ab7a	0.020101298
63	0xbce947a7	-0.02847655
64	0x3d459110	0.048234046
65	0x3bcbaabd	0.006215422
66	0x3ba115f0	0.004915945
67	0xbd06657c	-0.032811627
68	0x3d16b2d5	0.03679164
69	0xbd2b7a2b	-0.041864555
70	0xbdd2004d	-0.102539636
71	0xba41533d	-0.0007374769
72	0xbca2dc9f	-0.019880591
73	0xbc0a8569	-0.008454659
74	0x3ca0d6a1	0.019633593
75	0x3c7438ae	0.014906092
76	0x3d236729	0.039893303
77	0x3d0729c7	0.032998826
78	0xbd005851	-0.031334225
79	0xb9a926ac	-0.00032263005
80	0x3d0b0b0d	0.033946086
81	0x3c75bc2b	0.014998476
82	0x3caa791e	0.020809706
83	0xbdd1fcd0	-0.10253298
84	0x3ca2acae	0.01985773
85	0x3c961cc9	0.018324273
86	0x3dcfddd4	0.10149732
87	0x3cda1e82	0.026625875
88	0x3d5d99f8	0.054101914
89	0xbb7badcd	-0.0038403154
90	0x3c9eab4c	0.01936879
91	0xbd458f27	-0.048232224
92	0xbdd1bfe3	-0.102416776
93	0x3d0d330e	0.034472518
94	0xbcfa79c3	-0.030575639
95	0x3dd1f697	0.102521114
96	0x3cfb9cfa	0.0307145
97	0x3c14b177	0.009075514
98	0x3bc002e4	0.0058597196
99	0x3d2813d3	0.04103453
100	0xbc381a28	-0.011236705
101	0xbb0c52a9	-0.0021411574
102	0xbc3bb664	-0.0114570595
103	0x3d35ad33	0.04435463
104	0x3c90996e	0.017651286
105	0xbd1d02cc	-0.038332745
106	0x3c354768	0.011064388
107	0xbbf4280b	-0.0074510626
108	0x3d36c2d2	0.04461939
109	0xbc347d30	-0.011016175
110	0x3c3bc1bb	0.011459763
111	0xbc85cc55	-0.016332785
112	0xbcc26f04	-0.023734577
113	0xbd0f7288	-0.035021335
114	0x3be858dc	0.007090671
115	0x3c072e34	0.008250762
116	0xbbe1207e	-0.0068703284
117	0x3c3bc147	0.011459655
118	0x3c00d21b	0.007862593
119	0xbc8d1285	-0.017220745
120	0x3c90de55	0.017684141
121	0xbb72e27c	-0.0037061265
122	0x3c3b6135	0.01143675
123	0xbd121899	-0.03566799
124	0x3c1cd9b5	0.00957339
125	0xbbeb1a80	-0.00717479
126	0xbd06e19a	-0.032929994
127	0xb923b8d8	-0.00015613751
128	0xbc3bb4f8	-0.0114567205
129	0x3cbd59d9	0.023114132
130	0xbc500c33	-0.012698221
131	0x3d1dee82	0.038557537
132	0x3cf86ca9	0.03032525
133	0x3c0b4fa3	0.008502874
134	0x3d12cd32	0.03584022
135	0xbd2cd6f6	-0.04219719
136	0x3cb72075	0.022354344
137	0x3c98894a	0.018620152
138	0x3c8feae6	0.017568063
139	0xbaebeebe	-0.0018000228
140	0x39897ae8	0.0002622225
141	0x3c428c8c	0.011874329
142	0x3c6ccc5a	0.014453018
143	0xbd6bdfd8	-0.05758652
144	0xbb1271b1	-0.0022345597
145	0x3cd2d60a	0.025736827
146	0xbd050526	-0.032475613
147	0xbab37e6a	-0.001369429
148	0xbc3bddc6	-0.011466449
149	0xbc9749ba	-0.018467773
150	0x3c164c4f	0.009173467
151	0x3c7ce3f3	0.015435207
152	0xbcf29918	-0.029614016
153	0xbd017e0b	-0.031614345
154	0x3ac6f6eb	0.0015179788
155	0xbd1b9ce4	-0.03799142
156	0xbc90d8a3	-0.017681425
157	0xbbd4fcf7	-0.0064998823
158	0x3ca53148	0.0201651
159	0xbbe31601	-0.0069301133
160	0xbbc64d2c	-0.00605168
161	0xbc389ce8	-0.011267878
162	0x3c0fa6ba	0.008767778
163	0xbd417fb2	-0.04724092
164	0x3c915e08	0.017745033
165	0x3c112fb8	0.008861475
166	0x3c91f12e	0.017815199
167	0x3bb9cd46	0.0056702225
168	0x3c85c42d	0.016328895
169	0xbc4b2a84	-0.012400273
170	0x3c3b71d0	0.011440709
171	0x3c954e14	0.018225707
172	0x39cb0614	0.00038723706
173	0xbc0775ce	-0.008267833
174	0xba002446	-0.00048882177
175	0xbd053974	-0.032525495
176	0xbd1f8055	-0.038940746
177	0x3c868528	0.016420916
178	0xbc3c4bca	-0.011492679
179	0x3be5ad46	0.007009181
180	0x3cb20d41	0.021734836
181	0x3bb66515	0.005566249
182	0x3cda6de2	0.026663724
183	0x3c3b3a50	0.011427477
184	0x3b45022f	0.0030061116
185	0xbbcfc61d	-0.0063407556
186	0xbc2db308	-0.010601766
187	0xbbde2d68	-0.006780315
188	0xbc2ca888	-0.010538228
189	0xbba4faa0	-0.0050347596
190	0x3a58b0d9	0.00082660984
191	0xbc915709	-0.017741697
192	0x3c394a9c	0.011309292
193	0xbc85a25a	-0.016312767
194	0xbd07449c	-0.033024415
195	0xbc3b060b	-0.011415015
196	0x3cf9b037	0.030479534
197	0xbcebceb5	-0.028785089
198	0xbc5de396	-0.01354303
199	0x3c0b40c5	0.008499329
200	0xbd3e450e	-0.046452574
201	0xbc80d3a5	-0.01572592
202	0xbd42a022	-0.047515996
203	0xba20709f	-0.00061202975
204	0xbc1d3c07	-0.009596831
205	0xbcaa8895	-0.02081708
206	0x3d3d5ae4	0.04622926
207	0x3d8a6892	0.067582265
208	0xbc9cc21f	-0.019135533
209	0xbd3cfad6	-0.046137653
210	0x3d42c509	0.04755119
211	0xbd2e1982	-0.042504795
212	0x3d123816	0.03569802
213	0xbd8dd019	-0.06924457
214	0xbd236de3	-0.039899718
215	0x3c95a5f9	0.018267618
216	0x3d7be74c	0.06149988
217	0x3d42b430	0.04753512
218	0x3d10f6cb	0.03539161
219	0x3c11ddb6	0.008902958
220	0xbc1b43e2	-0.009476634
221	0xbd38fca7	-0.045162823
222	0x3d4293dd	0.047504295
223	0xbd88ef53	-0.066862725
224	0x3cbcfd46	0.023069989
225	0x3d0da9eb	0.034585875
226	0xbcffc307	-0.031220926
227	0xbc45c958	-0.01207193
228	0xbd42ac46	-0.047527574
229	0x3c320296	0.010864874
230	0xbd037afb	-0.032099705
231	0x3c144510	0.009049669
232	0x3d3ca815	0.046058733
233	0xbd416649	-0.047216687
234	0x3bc1ac24	0.0059104133
235	0xbca90b55	-0.020635286
236	0xbd232124	-0.039826527
237	0xbd35d5b7	-0.044393267
238	0xbc1cf836	-0.0095806625
239	0x3cc41289	0.02393462
240	0x3b92fd86	0.0044857888
241	0xbd01e467	-0.031711962
242	0xbc3d5a8b	-0.011557232
243	0x3d386a03	0.045022976
244	0xbcf98b0d	-0.030461812
245	0x3cbc40cf	0.022980122
246	0xbd8b8084	-0.06811622
247	0xbd3f8500	-0.046757698
248	0xbd4328f0	-0.047646463
249	0xbcf421de	-0.029801305
250	0x3d475073	0.048660707
251	0xbcc4c499	-0.024019526
252	0x3d8af368	0.06784707
253	0x3d43198a	0.047631778
254	0x3d2d3ae1	0.04229248
255	0x3c8dda66	0.017316055
